final_model_2023-09-16 14:41:14.661342.pt (torch, 232235 bytes, 14 tensors)

conv3d.weight f4 [16, 1, 3, 3, 3]
0.17797744 0.13034824 0.17368038 -0.016715635 -0.16392913 -0.13253555 -0.049146123 0.021495152
-0.067907736 -0.123593874 -0.036062375 0.09785927 0.14999714 -0.101498626 -0.12619865 -0.013978139
0.06909883 0.07112672 -0.0924802 0.05020776 -0.057176948 -0.03927879 -0.16319114 0.1156368
-0.14182785 0.02623328 -0.11747312 -0.18433017 -0.050748233 0.028440736 -0.21155274 -0.024937717
-0.10427376 -0.045252696 -0.11356154 -0.03243238 0.20413467 -0.15521833 -0.05708421 0.17732476
0.031053456 0.0080818515 0.090401195 -0.018429277 0.14377515 -0.08270924 0.011469836 0.21125622
0.048122074 -0.08522455 0.18622205 -0.09647234 0.054822613 0.07342292 -0.06449666 0.097632974
0.0100746425 0.11380064 0.10216515 -0.1354266 0.15466832 0.01549883 0.17450899 0.13063873
-0.040585477 -0.009171143 -0.061508477 -0.08499186 0.16688158 0.19126916 0.089720555 0.19468695
0.086371586 0.059925854 -0.04080995 0.19561145 -0.11448528 0.16690186 -0.0043643303 -0.061790135
0.021617074 0.05707043 -0.17212401 -0.19641225 -0.059273355 -0.17708947 -0.009067666 -0.10876236
-0.13426943 -0.08110457 -0.08495943 0.0357893 0.1419502 -0.01973297 0.08722318 0.119415134
0.09986734 0.06679508 0.08138178 0.15357305 -0.11279244 -0.039704796 0.21341966 0.015573729
0.16492276 -0.09585486 0.10599035 0.043325033 -0.22779684 0.0030996485 -0.054006867 -0.20900586
-0.083629854 0.12708843 0.024270734 -0.13394697 -0.13294764 -0.11933414 -0.1312244 0.0015630655
-0.11220307 0.12219244 0.08306735 0.1405372 0.004967338 0.15946688 -0.18252662 -0.12965201
-0.14877552 0.07982216 -0.19776824 -0.113268234 0.0829613 0.18633413 0.115653045 0.097962596
-0.11444601 0.086671084 -0.053761244 0.02974119 0.007994339 0.20214678 0.14089866 0.056832943
-0.16748643 0.16192037 0.14760485 0.085153595 -0.17401038 -0.10609734 0.12769109 -0.16019827
0.1085149 0.049736198 0.1889519 0.08311556 0.13141108 0.0760756 -0.0667271 -0.064542584
-0.15283759 -0.002239428 -0.0018690879 -0.070902154 0.038870104 0.13537765 0.00981517 -0.095362134
-0.17290601 -0.10413607 0.05067505 -0.18984663 -0.19558237 -0.0056059347 -0.0037547497 -0.16285267
0.023469387 0.07083487 -0.16725181 -0.041127145 0.10606127 0.1658528 -0.14269991 -0.11268302
-0.11686873 -0.10178939 -0.13344136 0.14390182 -0.0012963089 -0.09138851 -0.10462485 -0.13146077
-0.12008688 0.06399872 0.08079941 0.18989019 0.24066146 0.20369646 0.17203942 -0.07047216
-0.13914058 0.008975367 -0.0369323 -0.00024785244 0.059427295 -0.047795206 -0.11374953 -0.06348514
0.040410057 0.09327971 -0.14765733 -0.15880525 -0.014179281 -0.030598462 -0.04427641 -0.13377659
0.08700935 -0.04560251 0.14512439 -0.10291305 -0.13952215 0.022737356 0.0839783 0.15814933
0.013799258 0.106204264 -0.17478462 -0.22776192 -0.11164406 -0.10771589 0.064898424 0.18334718
0.19937812 -0.061956875 -0.11371915 -0.115401864 -0.01601806 -0.09711763 -0.13842745 -0.0038229234
-0.11625408 0.15305355 -0.16167358 -0.231682 -0.0305163 -0.124495186 -0.15123086 0.09320265
0.022374192 -0.06823138 -0.1811102 -0.029397923 -0.08491601 0.18349302 0.13470602 -0.022740526
00000000: b83f 363e 027a 053e 45d9 313e 3aef 88bc
00000010: 0add 27be 66b7 07be 724d 49bd 9a16 b03c
00000020: 3613 8bbd c91e fdbd 24b6 13bd 716a c83d
00000030: da98 193e 83de cfbd 383a 01be 9004 65bc
00000040: b083 8d3d e3aa 913d 4266 bdbd a7a6 4d3d
00000050: 6032 6abd cce2 20bd 941b 27be fdd2 ec3d
00000060: 523b 11be 2de7 d63c bf95 f0bd 0cc1 3cbe
00000070: 61dd 4fbd 8cfc e83c 48a1 58be 2f4a ccbc
00000080: 7b8d d5bd e45a 39bd f492 e8bd d1d7 04bd
00000090: ae08 513e 8ef1 1ebe 22d1 69bd 9f94 353e
000000a0: d163 fe3c be69 043c 4324 b93d fff8 96bc
000000b0: cb39 133e 7663 a9bd fbeb 3b3c 8d53 583e
000000c0: a71b 453d 358a aebd feb0 3e3e 4a93 c5bd
000000d0: ad8d 603d c25e 963d d316 84bd ccf3 c73d
000000e0: 1d10 253c 4f10 e93d f63b d13d 45ad 0abe
000000f0: 5f61 1e3e ceee 7d3c 7cb2 323e 29c6 053e
00000100: f53c 26bd 9042 16bc 50f0 7bbd 3610 aebd
00000110: 01e3 2a3e 10dc 433e 69bf b73d 045c 473e
00000120: 96e3 b03d d074 753d 5628 27bd 5e4e 483e
00000130: 4277 eabd 52e8 2a3e a802 8fbb a717 7dbd
00000140: 4a16 b13c afc2 693d 4741 30be 4b20 49be
00000150: 9ec8 72bd f156 35be 8c90 14bc cdbe debd
00000160: ed7d 09be 271a a6bd 36ff adbd cd97 123d
00000170: 655b 113e 0aa7 a1bc 11a2 b23d ec8f f43d
00000180: 3f87 cc3d dccb 883d 7eab a63d 4142 1d3e
00000190: b9ff e6bd 7fa1 22bd af8a 5a3e f428 7f3c
000001a0: 83e1 283e 8e4f c4bd 7811 d93d 9775 313d
000001b0: 9343 69be 7923 4b3b 4e36 5dbd a205 56be
000001c0: 2146 abbd 7823 023e 6bd3 c63c 6529 09be
000001d0: 6d23 08be 7565 f4bd b05f 06be c6df cc3a
000001e0: b9ca e5bd 0840 fa3d 371f aa3d fce8 0f3e
000001f0: 0dc5 a23b 494b 233e 42e8 3abe 7fc3 04be
00000200: 9c58 18be cd79 a33d c283 4abe 2df9 e7bd
00000210: 9de7 a93d 60ce 3e3e 81db ec3d 9da0 c83d
00000220: ab62 eabd 9c80 b13d c034 5cbd cca3 f33c
00000230: b0fa 023c 91ff 4e3e bd47 103e a9c9 683d
00000240: 9081 2bbe 74ce 253e ba25 173e 0265 ae3d
00000250: c72f 32be 9049 d9bd 74c1 023e 040b 24be
00000260: 0f3d de3d 2fb8 4b3d 9b7c 413e 7e38 aa3d
00000270: a090 063e 86cd 9b3d 38a8 88bd e72e 84bd
00000280: 7581 1cbe 5ec3 12bb 2ffc f4ba 2635 91bd
00000290: 4236 1f3d 70a0 0a3e cfcf 203c 394d c3bd
000002a0: 460e 31be 4b45 d5bd a490 4f3d 2867 42be
000002b0: bf46 48be fdb1 b7bb 3f12 76bb dac2 26be
000002c0: df42 c03c df11 913d 0f44 2bbe f074 28bd
000002d0: a736 d93d 51d5 293e ed1f 12be 5bc6 e6bd
000002e0: df58 efbd f576 d0bd daa4 08be 005b 133e
000002f0: e9e8 a9ba e629 bbbd 8e45 d6bd a79d 06be
00000300: 1cf0 f5bd c311 833d 297a a53d 9372 423e
00000310: f56f 763e ce95 503e 1a2b 303e b553 90bd
00000320: de7a 0ebe 6b0d 133c 5346 17bd 31f2 81b9
00000330: 096a 733d e8c4 43bd 83f5 e8bd 7f04 82bd
00000340: 0485 253d 6f09 bf3d 7c33 17be d89d 22be
00000350: 3750 68bc a0a9 fabc 2e5b 35bd bbfc 08be
00000360: f531 b23d b3c9 3abd 7d9b 143e 14c4 d2bd
00000370: e5de 0ebe b143 ba3c d1fc ab3d e6f1 213e
00000380: 4816 623c 9f81 d93d bdfa 32be 6c3a 69be
00000390: a4a5 e4bd 269a dcbd 77e9 843d 5dbf 3b3e
000003a0: c729 4c3e 7ec6 7dbd 96e5 e8bd d057 ecbd
000003b0: 4e38 83bc 9ce5 c6bd edbf 0dbe 038a 7abb
000003c0: 9e16 eebd 12ba 1c3e c28d 25be 0c3e 6dbe
000003d0: 52fd f9bc 55f7 febd 43dc 1abe 08e1 be3d
000003e0: 154a b73c e5bc 8bbd f474 39be ead3 f0bc
000003f0: 72e8 adbd 98e5 3b3e 60f0 093e 574a babc

conv3d.bias f4 [16]
0.0865287 -0.017806618 0.012764573 -0.06412728 0.07969494 -0.072128125 0.16658242 -0.018670674
-0.018546762 -0.14027691 0.13087264 -0.1419773 0.13971509 0.013422251 -0.04921784 -0.09295088
00000000: f635 b13d 2fdf 91bc 8022 513c 2a55 83bd
00000010: 1a37 a33d e9b7 93bd 9594 2a3e 3ef3 98bc
00000020: 61ef 97bc c0a4 0fbe 7a03 063e 7f62 11be
00000030: 7911 0f3e 00e9 5b3c a598 49bd 085d bebd

conv3d_2.weight f4 [32, 16, 3, 3, 3]
-4.3570384e-05 -0.015698714 0.0042580166 -0.00057627395 -0.011248605 -0.015656585 0.00010330846 0.0050188284
0.01848392 -3.609207e-05 0.013463348 -0.013348856 -0.00041642782 -0.016068881 -0.0013709265 -0.0004919773
0.011951181 -0.018421488 -1.9388748e-05 -0.00880228 -0.0011777969 -0.00017179498 0.0074226777 0.0173763
-0.0005151507 -0.020151818 -0.004095529 1.73563e-40 5.2987673e-07 2.9137023e-05 -3.7541e-41 -4.7979036e-05
7.542399e-05 4.3236e-41 4.932816e-05 -2.2720513e-05 9.7621e-41 2.2997884e-08 2.0279133e-05 -6.7572e-41
-4.5938923e-06 -5.8132528e-06 -1.74208e-40 2.5955978e-05 1.4718691e-05 -5.3796e-41 6.0154343e-07 2.3473534e-05
4.3565e-41 -1.4640833e-06 7.882574e-06 6.7512e-41 7.089907e-06 -2.109784e-07 -3.2720274e-07 -0.004179565
0.012229965 2.2552758e-06 0.005407301 -0.0006765294 1.2862009e-06 0.00069468346 -0.0077069374 -2.9088104e-10
0.000734451 0.0012966591 1.3215044e-06 0.004317722 0.010685275 -2.076605e-06 -0.007016714 0.008193259
-3.3823988e-13 -0.0006319454 -0.0011951633 -1.2726538e-06 -0.0047432003 0.0037752374 1.4302225e-06 -0.0047953194
-0.014465224 3.4388e-41 -3.9917e-41 -7.924144e-22 4.0874e-41 2.9992e-41 -6.749291e-35 2.1504e-41
1.55302e-40 5.2896546e-36 2.7886e-41 3.4592e-41 6.625e-41 -5.3577e-41 6.1141606e-38 2.8411e-41
-5.1564e-41 4.601319e-34 1.324325e-34 -2.333239e-39 3.9649413e-33 4.080791e-34 -1.02864e-40 4.8957e-41
2.5369e-41 1.99702e-40 1.4275e-41 3.716e-42 -6.877855e-07 -0.005585854 0.000125808 3.002245e-05
-0.010323573 0.0118309595 3.8178628e-06 -0.0064006713 0.0040460494 -1.0895598e-06 0.0033564554 -0.004048783
6.0864924e-05 -0.0011128008 0.011632381 -3.0231036e-05 -0.006817091 0.004531849 -8.927004e-07 0.0028500182
-0.006213326 -2.035138e-05 0.014336558 -0.009284181 3.2588545e-05 -0.016743127 0.006573906 -6.843339e-22
-1.02021e-09 6.589214e-05 -4.2384e-41 -1.1906694e-08 0.0006146183 2.446e-41 -4.8733997e-05 -0.00025795956
-4.174e-41 7.3622395e-08 0.0010468496 5.0843e-41 -1.1104089e-11 -4.5932877e-05 4.7748e-41 -1.1041437e-09
1.5825583e-05 -4.0022e-41 4.7681523e-16 7.518618e-05 -1.40151e-40 1.8891425e-14 8.147225e-06 3.8911e-41
7.5534287e-19 -0.00017220598 -5.3558382e-05 0.012588009 -0.0034954376 -1.8016364e-05 0.012124701 0.0067798984
-0.00036959688 0.017129267 -0.014749819 -5.4230455e-05 0.01927775 0.013250027 0.000100929436 -0.015012208
0.015905427 -0.00019443648 -0.021945756 0.011912226 -5.9141672e-05 0.012712509 -0.007492965 -7.000674e-05
0.0038315107 -0.0149280485 7.946703e-05 0.01380194 0.014309919 -1.289e-41 2.0164469e-11 2.9194713e-11
-9.927e-42 2.6425818e-08 4.2712196e-07 1.4841e-41 4.0503307e-09 1.9941815e-07 -1.0657e-41 1.7727774e-19
1.022123e-27 4.6169e-41 -1.8966681e-19 -1.94711e-34 -4.2433e-41 -5.002766e-17 -1.6125934e-28 1.50708e-40
4.5482e-41 -3.0379e-41 3.792e-42 -3.0477e-41 -3.6172e-41 -4.4844e-41 4.1739e-41 2.5033736e-20
3.28e-41 -9.714544e-12 -5.193583e-09 4.6267e-41 -1.554421e-14 -1.8131356e-08 -3.1816e-41 4.6920916e-19
9.049487e-10 -1.73517e-40 2.9231e-41 -3.4203e-41 5.1304e-41 1.08397e-40 3.2889695e-37 -6.9382e-41
-1.4465914e-25 8.139863e-15 3.0516e-41 5.0905e-41 6.934e-41 -2.9946e-41 -2.6549e-41 1.608292e-17
2.9081e-41 -1.5643214e-35 4.753782e-10 2.7723e-41 -8.130455e-08 1.6716911e-05 -4.6711e-41 -1.753699e-07
6.421831e-05 -2.8926e-41 -2.7756974e-10 0.00037412552 -5.0829e-41 -4.6397e-41 1.875409e-06 -3.3082e-41
00000000: 58bf 36b8 979a 80bc d586 8b3b 1711 17ba
00000010: 124c 38bc 3d42 80bc 4fa7 d838 fc74 a43b
00000020: 976b 973c 9161 17b8 6095 5c3c 29b5 5abc
00000030: ff53 dab9 e3a2 83bc a9b0 b3ba 0af8 00ba
00000040: e3ce 433c a9e8 96bc 05a5 a2b7 7037 10bc
00000050: 4e60 9aba dd23 34b9 ef39 f33b be58 8e3c
00000060: 2e0b 07ba 6d15 a5bc ca33 86bb d3e3 0100
00000070: da3c 0e35 486b f437 a668 0080 193d 49b8
00000080: f22c 9e38 8678 0000 b5e5 4e38 ee97 beb7
00000090: 2110 0100 e28c c532 1b1d aa37 5dbc 0080
000000a0: 3c25 9ab6 760f c3b6 9fe5 0180 0abc d937
000000b0: 4cf0 7637 f695 0080 c079 2135 08e9 c437
000000c0: 7179 0000 8581 c4b5 663f 0437 32bc 0000
000000d0: d6e5 ed36 4d89 62b4 67aa afb4 bbf4 88bb
000000e0: 3160 483c 5859 1736 ba2f b13b 1f59 31ba
000000f0: 87a1 ac35 6b1b 363a 7a8a fcbb dee9 9faf
00000100: 2c88 403a a9f4 a93a 8c5e b135 ad7b 8d3b
00000110: 4b11 2f3c cd5b 0bb6 77ec e5bb 053d 063c
00000120: 8169 beaa 23a9 25ba 07a7 9cba 0dd0 aab5
00000130: d96c 9bbb f969 773b 12f6 bf35 0e22 9dbb
00000140: 8cff 6cbc dc5f 0000 466f 0080 187e 6f9c
00000150: f171 0000 9b53 0000 4b6d b386 f23b 0000
00000160: ebb0 0100 3dff e004 bc4d 0000 6e60 0000
00000170: aeb8 0000 5a95 0080 7b71 a601 334f 0000
00000180: bd8f 0080 b1e7 1808 7208 3007 1f68 1980
00000190: 7db2 a409 889b 0708 be1e 0180 7988 0000
000001a0: b846 0000 b02c 0200 cb27 0000 5c0a 0000
000001b0: 42a0 38b5 8a09 b7bb 54eb 0339 b8d8 fb37
000001c0: 3424 29bc a4d6 413c 311b 8036 b9bc d1bb
000001d0: b994 843b fd3c 92b5 faf7 5b3b a7ab 84bb
000001e0: 3749 7f38 66db 91ba be95 3e3c a898 fdb7
000001f0: e761 dfbb e87f 943b e8a1 6fb5 5fc7 3a3b
00000200: 2899 cbbb 41b8 aab7 e2e3 6a3c ad1c 18bc
00000210: afaf 0838 e228 89bc ec69 d73b c5d3 4e9c
00000220: 7337 8cb0 932f 8a38 2676 0080 328e 4cb2
00000230: 561e 213a 2f44 0000 bb67 4cb8 bf3e 87b9
00000240: 5b74 0080 571a 9e33 7236 893a bb8d 0000
00000250: 5f58 43ad 0da8 40b8 1a85 0000 9ac0 97b0
00000260: 2ec1 8437 916f 0080 c16e 0926 46ad 9d38
00000270: af86 0180 a928 aa28 11b0 0837 786c 0000
00000280: 18f0 5e21 3192 34b9 e0a3 60b8 f03d 4e3c
00000290: b613 65bb d921 97b7 afa6 463c e929 de3b
000002a0: 74c6 c1b9 ad52 8c3c 3aa9 71bc 8275 63b8
000002b0: 5fec 9d3c a416 593c 14aa d338 c4f5 75bc
000002c0: 194c 823c a5e1 4bb9 96c7 b3bc 7f2b 433c
000002d0: e30e 78b8 2148 503c 8c87 f5bb 95d0 92b8
000002e0: 151a 7b3b c694 74bc 89a7 a638 8821 623c
000002f0: 2774 6a3c ef23 0080 595e b12d 5366 002e
00000300: ac1b 0080 fdfe e232 324f e534 5f29 0000
00000310: 162b 8b31 a51f 5634 b51d 0080 e94a 5120
00000320: 3cf6 a112 b380 0000 47eb 5fa0 5c68 8187
00000330: 4976 0080 3cb6 66a4 a66b 4c91 1da4 0100
00000340: c97e 0000 af54 0080 920a 0000 f554 0080
00000350: d564 0080 027d 0080 5a74 0000 dc6f ec1e
00000360: 6f5b 0000 6be6 2aad 3d73 b2b1 f980 0000
00000370: 8202 8ca8 46bf 9bb2 b158 0080 717c 0a21
00000380: 1bc0 7830 b2e3 0180 7c51 0000 585f 0080
00000390: 048f 0000 2b2e 0100 eed5 df02 69c1 0080
000003a0: 5014 3396 7ea2 1228 1155 0000 e78d 0000
000003b0: 4bc1 0000 7a53 0080 024a 0080 b956 9423
000003c0: 1151 0000 e158 a685 c4ab 0230 484d 0000
000003d0: a699 aeb3 4b3b 8c37 3682 0080 504d 3cb4
000003e0: f1ac 8638 a250 0080 7898 98af 4726 c439
000003f0: b18d 0080 5681 0080 90b6 fb35 385c 0080

conv3d_2.bias f4 [32]
-0.021377757 -0.026846118 0.045848977 0.060368214 0.030459978 0.03233206 -0.042924866 -0.0318676
0.03507296 0.0500804 -0.0367208 0.04521023 0.014551708 -0.030948859 0.0009605361 0.012112543
0.02087774 -0.028387927 -0.0039555863 0.008981303 0.056428522 -3.927066e-05 -2.545763e-15 0.0006206346
0.008975365 0.034029957 -0.040286247 0.008561936 -0.015632123 0.013265614 0.025159998 0.01405233
00000000: 6820 afbc 64ec dbbc 23cc 3b3d a944 773d
00000010: 3487 f93c 9f6e 043d fcd1 2fbd 9a87 02bd
00000020: aaa8 0f3d 1b21 4d3d 8d68 16bd 5d2e 393d
00000030: 496a 6e3c 7688 fdbc 7dcc 7b3a b073 463c
00000040: cb07 ab3c cc8d e8bc dd9d 81bb 5126 133c
00000050: 9821 673d 8db6 24b8 0a71 37a7 15b2 223a
00000060: 690d 133c ff62 0b3d 3103 25bd 5d47 0c3c
00000070: f00e 80bc 0558 593c 571c ce3c be3b 663c

conv1.bias f4 [32]
0.0024575964 0.011498171 -0.005109324 -0.017546708 -0.0026281544 0.0009508196 0.00016045451 0.012699076
0.011928788 -0.0077327057 -0.0005952671 -0.0063958694 0.0010204455 -0.0045513264 -0.012111407 -0.010582534
-0.00824683 -0.0027116458 -0.012882646 0.0019266627 -0.0033805186 -0.006807306 -0.001086516 -0.012557549
0.007064733 0.0059626754 -0.00788563 -0.008358227 0.00054143113 -0.018463708 0.0038352716 -0.014693521
00000000: a00f 213b d362 3c3c 1e6c a7bb 1dbe 8fbc
00000010: 1d3d 2cbb 6c40 793a ae3f 2839 c90f 503c
00000020: f770 433c a362 fdbb b30b 1cba 7194 d1bb
00000030: 78c0 853a 4b23 95bb ec6e 46bc 5d62 2dbc
00000040: b61d 07bc deb5 31bb bc11 53bc 1388 fc3a
00000050: b18b 5dbb d20f dfbb 6d69 8eba 2ebe 4dbc
00000060: 477f e73b 8c62 c33b bb32 01bc f2f0 08bc
00000070: d4ee 0d3a 3441 97bc 2e59 7b3b 18bd 70bc

conv1.lin.weight f4 [32, 256]
-0.009692865 1.629238e-12 0.003895308 2.1319705e-07 -0.01567519 5.135409e-10 -0.0041445307 2.8258472e-07
0.00027514333 -6.1145203e-34 -0.0011945169 4.5978336e-13 -4.1656782e-11 4.5217754e-09 1.1157496e-05 2.3318438e-05
0.1333388 0.04373307 0.008192051 0.09382737 0.008546035 0.013477038 0.13159345 0.08020535
-0.018209917 -0.08164668 -0.12452217 0.0062005324 0.10089024 0.11351162 -0.09565127 -0.02632242
-0.13108249 -0.022633873 -0.0052459 0.0028846646 0.059096135 0.051531278 0.07169414 0.0006750283
-0.07959232 0.0181808 0.107694104 -0.12384014 0.010967887 0.020839827 0.13021584 -0.025642317
-2.8316094e-09 2.5185074e-15 0.00014700633 -5.4868e-41 -5.6082473e-07 3.685601e-15 0.0009089372 2.900225e-14
0.011900769 -0.017024415 0.013668592 0.0022892465 -0.012623579 -0.0056791785 0.062021945 0.027040012
0.012112587 0.094193876 0.102100715 -0.15778261 -0.04685893 0.11772106 -0.028507145 0.11004822
-0.034255274 -0.0049714707 -0.14099239 0.05716329 -0.050835006 -0.0078066145 -0.012752616 0.13536535
-0.09885828 -0.047227707 0.024971085 -0.058265183 -0.12710908 0.03118834 0.041609578 -0.09660871
0.095161945 -0.14114848 -0.036982413 -0.112121016 0.060833693 -0.06267528 0.037394993 0.05192878
-0.11544981 0.06662913 -0.016005823 0.04965164 0.073622204 -0.09101158 0.06419563 0.0011199485
-0.057571795 0.050800055 0.026415005 -0.01840956 -0.032892242 -0.0934859 0.022095885 0.04398745
0.088655055 0.049659714 0.03707762 0.0815855 -0.025877014 0.043910395 -0.018530296 -0.15580681
-0.13889875 0.09097553 0.13300505 0.07847792 -0.08338047 0.05851066 0.12549263 0.003372715
0.026679844 -0.076952316 0.07144 0.037267584 -0.07621178 -0.10697435 -0.071416594 0.024896508
-0.058362436 0.016237842 -0.13860735 -0.1257081 -0.030891191 -0.026359225 0.123491056 0.09383875
0.03216178 0.0463095 0.07017117 -0.07156887 0.016488556 -0.10109166 0.123027645 -0.116958514
-0.06397567 0.07615213 -0.0020855158 0.07796463 0.08389121 -0.05651958 -0.09198565 -0.045101997
-0.020357136 0.044779085 0.024694104 -0.052985154 -0.037698623 -0.06869633 -0.09451035 0.034411404
-2.9967e-41 1.50462e-40 1.6094e-41 -8.437712e-25 -3.513152e-11 -1.9220384e-28 1.4021361e-15 4.3227e-41
-1.2393696e-09 4.5537e-41 4.3406296e-28 -1.9195e-41 -2.8592766e-21 -1.6308844e-17 -4.6983e-41 -2.787357e-13
0.10750934 -0.069434136 -0.023408439 0.047224976 -0.029411638 -0.100857064 0.03911078 -0.006881585
0.13199429 -0.048767675 0.11337126 0.02214314 -0.04036569 -0.0139844455 0.03859174 -0.041319724
0.02472086 -0.101425365 -0.05019745 -0.06494753 0.13032661 -0.09464512 0.07758297 -0.045568038
0.054149173 0.022947524 0.015581824 -0.008947247 -0.05680672 0.041536767 -0.06663494 0.034191776
-0.13964021 0.048390254 0.02258953 -0.027288232 -0.13801746 0.10924056 -0.05241214 -0.10829902
-0.16283062 -0.09463999 -0.10778771 0.07383754 0.06384094 -0.10160128 0.08337805 -0.06852187
-0.109618 -0.13336518 -0.010744186 -0.09580157 0.097799614 -0.059644513 -0.06637069 -0.004896387
0.08787161 -0.037685934 0.11580096 0.016990889 0.09371013 0.059466925 0.042197037 -0.14040296
0.08169881 -0.03079483 -0.06605176 0.00034233177 0.011064322 0.01012784 0.13137482 -0.015168041
00000000: d3ce 1ebc 7c4b e52b 6c48 7f3b 29eb 6434
00000010: 4269 80bc 3a29 0d30 d8ce 87bb 26b6 9734
00000020: 1d41 9039 9630 4b88 5691 9cba e26a 012b
00000030: 5e35 37ae f55d 9b31 1531 3b37 f79b c337
00000040: f789 083e 7321 333d f437 063c 9028 c03d
00000050: ab04 0c3c cbce 5c3c 6fc0 063e b442 a43d
00000060: f72c 95bc 6036 a7bd 7b05 ffbd d62d cb3b
00000070: 8b9f ce3d c878 e83d d0e4 c3bd 1ea2 d7bc
00000080: 7d3a 06be ac6a b9bc cce5 abbb a40c 3d3b
00000090: ca0e 723d 7612 533d 61d4 923d 62f4 303a
000000a0: 4c01 a3bd e7ef 943c ba8e dc3d e69f fdbd
000000b0: a7b2 333c 49b8 aa3c 4d57 053e d60f d2bc
000000c0: 3396 42b1 437a 3527 b625 1a39 f398 0080
000000d0: 958b 16b5 abc9 8427 be45 6e3a 519d 0229
000000e0: 71fb 423c c976 8bbc 3bf2 5f3c 2f07 163b
000000f0: 21d3 4ebc 6718 babb b90a 7e3d 0483 dd3c
00000100: df73 463c b8e8 c03d 2e1a d13d c491 21be
00000110: 26ef 3fbd bd17 f13d d187 e9bc f660 e13d
00000120: 424f 0cbd b8e7 a2bb 4f60 10be 0e24 6a3d
00000130: 5e38 50bd a1ce ffbb 59f0 50bc 379d 0a3e
00000140: 3676 cabd d771 41bd 2990 cc3c 79a7 6ebd
00000150: e228 02be b17e ff3c ce6e 2a3d cada c5bd
00000160: 44e4 c23d 3a89 10be df7a 17bd b49f e5bd
00000170: c02c 793d e65b 80bd 7e2b 193d 46b3 543d
00000180: f370 ecbd da74 883d a51e 83bc 855f 4b3d
00000190: 3dc7 963d 4764 babd 0079 833d 3ccb 923a
000001a0: 67d0 6bbd b813 503d 4864 d83c a5cf 96bc
000001b0: 04ba 06bd 8975 bfbd 6e02 b53c 2f2c 343d
000001c0: c890 b53d fc67 4b3d b4de 173d 4c16 a73d
000001d0: 08fc d3bc 63db 333d d9cc 97bc d28b 1fbe
000001e0: 793b 0ebe 6151 ba3d 7a32 083e 08b9 a03d
000001f0: 61c3 aabd e0a8 6f3d 2481 003e c508 5d3b
00000200: b08f da3c 2d99 9dbd 224f 923d e5a5 183d
00000210: ec14 9cbd 5e15 dbbd dd42 92bd c3f3 cb3c
00000220: 730d 6fbd 3905 853c 16ef 0dbe a0b9 00be
00000230: 860f fdbc 4def d7bc e1e8 fc3d 882e c03d
00000240: 12bc 033d 08af 3d3d e7b5 8f3d b392 92bd
00000250: 0213 873c 2509 cfbd ebf5 fb3d f287 efbd
00000260: ad05 83bd a6f5 9b3d 26ad 08bb ecab 9f3d
00000270: 28cf ab3d 1381 67bd f962 bcbd dfbc 38bd
00000280: 02c4 a6bc 466a 373d 4a4b ca3c f606 59bd
00000290: df69 1abd a9b0 8cbd a48e c1bd f9f2 0c3d
000002a0: 8953 0080 6da3 0100 dd2c 0000 3991 8297
000002b0: 9382 1aae b6a5 7391 b111 ca26 8078 0000
000002c0: 7156 aab0 f07e 0000 5f8f 0912 8235 0080
000002d0: 740a 589d 2b6c 96a3 f882 0080 0cea 9caa
000002e0: db2d dc3d 7c33 8ebd 0ec3 bfbc fa6e 413d
000002f0: adf0 f0bc 268e cebd a032 203d eb7e e1bb
00000300: 8329 073e 9dc0 47bd 312f e83d 8865 b53c
00000310: 7e56 25bd 041f 65bc 5f12 1e3d df3e 29bd
00000320: 6783 ca3c 1ab8 cfbd d79b 4dbd 3603 85bd
00000330: 5774 053e 4dd5 c1bd d2e3 9e3d 8da5 3abd
00000340: 86cb 5d3d 72fc bb3c e84a 7f3c 7997 12bc
00000350: 2aae 68bd 7522 2a3d e677 88bd ad0c 0c3d
00000360: d8fd 0ebe dc34 463d ae0d b93c 928b dfbc
00000370: 7354 0dbe 84b9 df3d 1dae 56bd e0cb ddbd
00000380: 12bd 26be 9cd2 c1bd cebf dcbd 2338 973d
00000390: 0abf 823d 5514 d0bd 1cc2 aa3d 3255 8cbd
000003a0: 677f e0bd e290 08be 6208 30bc 9d33 c4bd
000003b0: 2a4b c83d ce4d 74bd 5bed 87bd df71 a0bb
000003c0: 08f6 b33d 915c 1abd 0e29 ed3d 7a30 8b3c
000003d0: 19eb bf3d 9793 733d cdd6 2c3d cbc5 0fbe
000003e0: b551 a73d 7045 fcbc 2546 87bd fe7a b339
000003f0: 2147 353c 3def 253c 1f87 063e 6083 78bc

conv2.bias f4 [16]
-0.026919948 -4.981033e-05 -0.0012596404 -0.018677777 0.0031647815 -0.049048036 -0.04247881 0.0035212466
-0.010224643 0.021382114 -0.012462351 0.007574306 -0.023169387 -0.033328652 0.021182163 -0.02815592
00000000: 3987 dcbc 6feb 50b8 851a a5ba 2302 99bc
00000010: 3968 4f3b 98e6 48bd 43fe 2dbd b7c4 663b
00000020: 4385 27bc 8b29 af3c e32e 4cbc e231 f83b
00000030: bacd bdbc a083 08bd 3786 ad3c 3ea7 e6bc

conv2.lin.weight f4 [16, 32]
0.24981968 -0.35697076 -0.026784487 -0.0396268 -0.06345453 -0.3193639 0.10360764 -0.3039457
-0.3389847 -0.042015735 0.27665707 0.16558991 0.002421584 0.1593353 0.0001433181 -0.04058294
-0.1693935 -0.03190804 0.06413278 -0.059406277 -0.3071545 0.31637466 -0.059552994 -0.25484207
-0.26978827 -0.281325 0.0025538327 -0.07777171 -0.06364008 -0.08949311 0.34323555 0.23921712
-0.25241315 0.3161608 0.01146062 -0.17036538 -0.20553353 0.33797127 -0.01952907 0.2218437
0.24631205 -1.53395e-08 0.031564165 0.043130655 0.06817382 -0.06317579 0.08701916 0.099725865
3.818263e-11 -0.14461768 -0.02225057 0.25821826 0.28179723 -0.29161778 -0.04932291 0.02391542
0.20953384 0.12318121 -0.0011435779 1.90431e-40 0.002757121 0.07318181 -0.13804792 0.2203778
0.084305756 0.1074056 -0.057960022 -0.31918755 -0.20221393 0.2755966 -0.09597257 0.31961277
0.1733279 0.01189983 0.20415917 -0.07932863 -0.0015430992 -0.09317565 -0.23738484 0.0771285
0.034426153 0.08817517 0.17637376 -0.28976268 0.18065022 -0.17680222 0.23389632 -0.12067785
0.16190559 0.29497007 4.6280173e-05 -0.022526875 0.1473322 -0.09192032 -0.21248975 -0.016654763
0.082398675 -0.3431772 -0.11967533 0.40561756 0.021226786 -0.24788451 0.04308643 0.09803716
0.27608487 0.08384903 -0.19586757 0.25402716 0.03783983 -0.21319847 0.018391151 -0.06952616
-0.31409574 -0.3274167 0.21530412 -0.12484772 -0.29551896 0.3735675 0.0024970062 0.04808832
-0.05887066 -0.17497662 -2.661239e-05 -0.1625942 0.27642858 -0.22242066 0.30371472 0.37216944
0.25232923 0.15114197 0.08555396 0.30971384 -0.19351728 0.17132194 -0.11066457 0.058246687
-0.038642384 0.09292573 0.1712595 0.27717605 -0.3081211 0.26226792 0.106861226 0.02779917
0.09211633 0.101222545 0.25112182 -0.2860011 0.25566998 -0.23296534 -0.26648083 -0.12803279
-0.13053624 0.29487443 -0.0023099617 0.1458398 -0.29265833 0.17601216 0.032277297 -0.27275005
-0.035352312 -0.20341389 4.0891424e-09 -0.049911954 -0.069262885 -0.075071156 0.09625162 -0.16243625
0.09834417 -1.009444e-10 -0.20901643 -9.647667e-06 0.2086972 -0.001582059 0.16190934 0.011291165
3.52648e-23 -0.0019264388 0.36578107 0.035655566 4.5320892e-05 0.22171718 -0.16932458 0.0011188623
-0.15850611 0.11352368 0.00070998986 7.216818e-36 0.35537183 0.022178812 0.051933255 0.16072792
-0.2450528 -0.17073487 -0.14567639 0.26282522 0.086280845 -0.093090706 0.20461024 -0.04441878
0.22410926 -0.00867825 -0.21233152 -3.4576806e-05 0.089699164 0.09397886 0.19584407 0.11369927
-0.009225876 0.006423846 0.1455747 0.04823326 -0.03651976 0.07689523 -0.14657265 -0.12699221
0.18308105 -0.011164633 0.00019912467 0.0003624202 0.27439037 -0.04940413 0.09416385 0.34136093
0.30661756 0.21691835 -0.22663993 -0.34284958 -0.3469528 -0.31835052 -0.14335297 0.227773
0.018120732 -0.002441395 0.26407808 0.020234467 -0.11462652 -0.01327217 -0.039096665 0.013881771
-0.01703758 -0.27420124 -0.30647412 -0.14791368 -0.010473455 0.09891253 0.019091977 -0.14381608
0.18904777 0.19858073 -0.0016410408 -0.019392785 0.11213236 -0.2504724 0.29560894 0.023596162
00000000: bbd0 7f3e dfc4 b6be 246b dbbc b64f 22bd
00000010: 73f4 81bd aa83 a3be 3e30 d43d c59e 9bbe
00000020: 678f adbe b118 2cbd ffa5 8d3e 6790 293e
00000030: 70b3 1e3b cb28 233e a947 1639 4c3a 26bd
00000040: 7d75 2dbe 01b2 02bd 0c58 833d ff53 73bd
00000050: 5b43 9dbe dcfb a13e d7ed 73bd a97a 82be
00000060: b021 8abe d509 90be 345e 273b c646 9fbd
00000070: bb55 82bd 2a48 b7bd 92bc af3e 55f5 743e
00000080: 4c3c 81be d4df a13e 53c5 3b3c 4374 2ebe
00000090: 6277 52be 920a ad3e 6efb 9fbc ff2a 633e
000000a0: 3a39 7c3e ebc3 83b2 6d49 013d c5a9 303d
000000b0: b79e 8b3d 4f62 81bd 1a37 b23d 133d cc3d
000000c0: d2ed 272e a816 14be d446 b6bc 2f35 843e
000000d0: ba47 903e ed4e 95be d206 4abd 45ea c33c
000000e0: 0a90 563e 6e46 fc3d 1be4 95ba d812 0200
000000f0: d1b0 343b 58e0 953d 6f5c 0dbe b8aa 613e
00000100: 7fa8 ac3d 78f7 db3d 7d67 6dbd 8d6c a3be
00000110: 2b11 4fbe ff1a 8d3e 448d c4bd 49a4 a33e
00000120: de7c 313e 81f7 423c 1a0f 513e 0c77 a2bd
00000130: d141 caba e0d2 bebd 0315 73be 8cf5 9d3d
00000140: 7002 0d3d 2f95 b43d 539b 343e c65b 94be
00000150: 5ffc 383e a40b 35be 8482 6f3e f325 f7bd
00000160: 94ca 253e 5106 973e f51c 4238 488a b8bc
00000170: 41de 163e b940 bcbd ea96 59be 926f 88bc
00000180: a3c0 a83d ecb4 afbe 5718 f5bd 1bad cf3e
00000190: cce3 ad3c 70d5 7dbe 657b 303d b5c7 c83d
000001a0: ff5a 8d3e 0ab9 ab3d 8291 48be d90f 823e
000001b0: f0fd 1a3d b350 5abe 0aa9 963c bb63 8ebd
000001c0: 28d1 a0be 29a3 a7be af78 5c3e 29b0 ffbd
000001d0: 434e 97be 3d44 bf3e d0a4 233b 42f8 443d
000001e0: 5c22 71bd 122d 33be ac3d dfb7 187f 26be
000001f0: 0c88 8d3e 3ec2 63be 7f80 9b3e fe8c be3e
00000200: 4c31 813e f6c4 1a3e ea36 af3d d092 9e3e
00000210: 6529 46be 056f 2f3e 1ba4 e2bd 1494 6e3d
00000220: 7a47 1ebd d84f be3d a65e 2f3e 05ea 8d3e
00000230: 0cc2 9dbe fb47 863e 0fda da3d 16bb e33c
00000240: 7da7 bc3d c44d cf3d 0a93 803e bc6e 92be
00000250: 2de7 823e 778e 6ebe 2d70 88be 071b 03be
00000260: 4bab 05be c8f9 963e ba62 17bb 0757 153e
00000270: 50d7 95be 883c 343e 3335 043d e5a5 8bbe
00000280: 96cd 10bd bb4b 50be 7a80 8c31 7a70 4cbd
00000290: b3d9 8dbd e8be 99bd 921f c53d b055 26be
000002a0: ab68 c93d a5fa ddae 6708 56be 6adc 21b7
000002b0: b8b4 553e 175d cfba 90cb 253e 94fe 383c
000002c0: b587 2a1a 8f80 fcba a847 bb3e 920b 123d
000002d0: f016 3e38 d409 633e 6c63 2dbe caa6 923a
000002e0: 6d4f 22be 1a7f e83d 9d1e 3a3a 187c 1905
000002f0: 4cf3 b53e 57b0 b53c f7b7 543d dc95 243e
00000300: 1fef 7abe 1fd5 2ebe 312c 15be 0791 863e
00000310: 03b4 b03d 57a6 bebd 5985 513e 77f0 35bd
00000320: e67c 653e 382f 0ebc 6f6d 59be 9006 11b8
00000330: 32b4 b73d fd77 c03d 598b 483e 2adb e83d
00000340: 2128 17bc 207f d23b 8911 153e 3d90 453d
00000350: be95 15bd 3f7b 9d3d 2417 16be 3f0a 02be
00000360: 9979 3b3e ddeb 36bc 1fcc 5039 3703 be39
00000370: e57c 8c3e fc5b 4abd fad8 c03d dcc6 ae3e
00000380: fafc 9c3e d81f 5e3e 4c14 68be fb89 afbe
00000390: cca3 b1be d7fe a2be 1fcb 12be 533d 693e
000003a0: ee71 943c d0ff 1fbb 3e35 873e c1c2 a53c
000003b0: 4fc1 eabd 8473 59bc d323 20bd 5e70 633c
000003c0: 6592 8bbc 1b64 8cbe 2dea 9cbe af76 17be
000003d0: db98 2bbc a792 ca3d c766 9c3c 8644 13be
000003e0: bd95 413e bf58 4b3e 3118 d7ba 9edd 9ebc
000003f0: a7a5 e53d eb3d 80be 0e5a 973e bd4c c13c

conv3.bias f4 [8]
-0.004735282 0.0 -0.019833108 0.0 -0.11504458 -0.0023107706 -0.011770448 -0.0036398103
00000000: 6d2a 9bbb 0000 0000 0b79 a2bc 0000 0000
00000010: 7e9c ebbd 4c70 17bb d6d8 40bc e289 6ebb

conv3.lin.weight f4 [8, 16]
0.27418232 -0.37081343 0.4567135 0.5017097 0.123356685 -7.734382e-09 0.02862635 -0.39417946
-0.0058055087 -0.28975445 0.032086175 0.12346094 0.4992122 0.0083736135 0.0013131206 -0.0012646676
0.0031609244 -0.041186698 0.00031884646 0.0008832821 0.00443534 -0.0039001885 0.0318784 1.393e-42
-0.020059405 -0.0075427056 1.2999256e-09 0.0001824123 -8.656385e-31 -1.9010591e-05 -0.006321106 -3.3406333e-10
-0.09238879 -0.37368914 0.4119856 -0.50457674 0.39826965 0.009003361 -0.3168721 0.343934
0.030392276 0.09969394 -0.00086620625 -0.25992304 -0.40093932 -0.061805096 -0.032511797 -0.30159813
0.0014172352 -0.032026015 -3.5022615e-05 -2.4521019e-09 -1.8574918e-06 3.4968e-41 1.4821914e-21 -0.032086685
-0.007531162 -1.796524e-10 1.2285645e-29 3.2504894e-07 0.017688178 -4.520213e-24 -0.0012506546 -0.005938116
0.41543874 0.063938454 0.050786987 0.6052789 0.2761881 0.22063728 0.27104595 -0.19363208
-0.090511955 -0.082956746 0.019424388 0.46188626 0.52650565 0.49149972 0.20394644 -0.3991467
-2.957444e-11 -0.0016988727 -0.0053250273 0.004611942 -8.245352e-05 -0.035263967 -0.0005129123 -0.011676638
4.3824e-41 -0.009654781 -4.6087e-41 -0.00018368619 0.01308013 -5.2715444e-13 -0.000106133666 -0.0055046035
0.01419626 0.0116447015 -0.022081425 -0.03426391 0.011444372 0.015785929 0.002161181 -0.021439644
-0.0154088875 0.06426399 -0.00059744786 -0.04475274 0.0028958397 0.0038348972 -0.009455737 -2.0092453e-07
0.0015353021 -0.08838324 -0.0057031205 -0.005221272 0.078063704 -0.0064492365 0.09337478 0.13774064
-0.12411462 -0.10482227 0.002623145 -0.07686838 -0.12995215 0.001037606 0.0041600675 0.0007514596
00000000: a061 8c3e 42db bdbe 5ad6 e93e 0c70 003f
00000010: 6ea2 fc3d 2ce0 04b2 cf81 ea3c e4d1 c9be
00000020: 233c bebb b25a 94be cb6c 033d 17d9 fc3d
00000030: be98 ff3e 7b31 093c 041d ac3a 34c3 a5ba
00000040: 8327 4f3b 62b3 28bd d92a a739 0f8c 673a
00000050: 5456 913b 4e9a 7fbb ed92 023d e203 0000
00000060: 9f53 a4bc cd28 f7bb 11a9 b230 ee45 3f39
00000070: 3775 8c8d ef78 9fb7 4821 cfbb 3ca7 b7af
00000080: 5536 bdbd 2f54 bfbe c7ef d23e f12b 01bf
00000090: 00ea cb3e d582 133c 0f3d a2be 1e18 b03e
000000a0: 39f9 f83c 562c cc3d 1e12 63ba a214 85be
000000b0: eb47 cdbe 5727 7dbd 172b 05bd 126b 9abe
000000c0: 86c2 b93a b62d 03bd 3fe5 12b8 d581 28b1
000000d0: ef4e f9b5 7a61 0000 81fb df1c 546d 03bd
000000e0: f7c7 f6bb a887 45af b72e 790f 6382 ae34
000000f0: cce6 903c 05de ae98 01ed a3ba 8794 c2bb
00000100: 63b4 d43e 2af2 823d 0406 503d 8ff3 1a3f
00000110: 8768 8d3e bdee 613e 89c6 8a3e 7d47 46be
00000120: 555e b9bd 3ae5 a9bd e51f 9f3c 5b7c ec3e
00000130: 13c9 063f daa5 fb3e 56d7 503e f55c ccbe
00000140: dc11 02ae b5ac deba 917d aebb c61f 973b
00000150: e5ea acb8 f370 10bd f674 06ba 5f4f 3fbc
00000160: 2a7a 0000 162f 1ebc 7980 0080 e39b 40b9
00000170: 0b4e 563c 7b61 14ab 1494 deb8 f65f b4bb
00000180: 6e97 683c 6bc9 3e3c 1be4 b4bc 5058 0cbd
00000190: 2d81 3b3c 7e51 813c 9aa2 0d3b 31a2 afbc
000001a0: 8f75 7cbc d79c 833d 0c9e 1cba a64e 37bd
000001b0: 21c8 3d3b e652 7b3b 3cec 1abc b7bd 57b4
000001c0: 313c c93a 4602 b5bd 3ee1 babb 3417 abbb
000001d0: dddf 9f3d 1e54 d3bb 473b bf3d e20b 0d3e
000001e0: ce2f febd 0fad d6bd 12e9 2b3b 2b6d 9dbd
000001f0: 2d12 05be 4800 883a 2d51 883b 9afd 443a

fc1.weight f4 [256, 128]
-0.024433717 0.038890854 -0.003697958 -0.040148396 -6.2516396e-05 0.03910774 0.01696621 0.024659889
-0.07455464 -0.071459405 0.013385282 0.058243908 -0.07397396 -0.06498258 0.07598627 0.047791865
-0.0098483255 0.026284542 0.0062764953 -0.028627142 -0.080765806 -0.108469725 0.051725637 0.028792325
-0.010293033 -0.06585568 -0.00015351418 0.092663184 0.029972738 -0.048788667 0.035421062 -0.08094658
-0.06827538 -0.06923303 0.045742933 -0.017207384 -0.066986054 -0.03947837 0.03904915 -0.032743867
0.05431493 -0.05615683 0.038729385 0.029009776 0.068091765 0.06149007 -0.056353897 -0.04008733
0.06162724 -0.058775548 -0.016380595 0.04478441 0.051231686 0.00011466554 0.01233891 0.013307039
0.020711463 -0.0931758 0.08137246 -0.01848792 -0.048962995 0.07472101 -0.053817168 -0.07069441
0.046303313 -0.05174919 0.045850523 0.032423995 0.03324775 0.038728587 0.066222295 0.062365536
-0.046134718 -0.037272006 -0.0028292541 -0.049654454 0.08119306 -0.067763396 -0.008616412 -0.027268812
-0.075864606 -0.074108474 0.02025904 -0.046435174 0.053532485 0.089917876 -0.054499544 -0.08471579
-0.0798449 0.053381715 0.010061809 0.043465443 -0.06675777 -0.07491342 0.04169843 -0.06031156
0.014445664 0.0024659736 -0.07488479 0.026319291 -0.0929509 -0.085049905 0.06570683 0.08468746
0.008653979 0.037077453 -0.030228846 -0.0004429777 -0.028532742 -0.04296505 0.014150742 0.08855605
0.054357845 0.03371691 -0.0012216666 -0.034325115 0.0070552374 -0.04456362 -0.06388609 0.07538003
0.06537146 0.02846419 0.0014291336 -0.08661599 -0.0035680146 0.008679962 0.011756145 -0.08380856
-0.082131125 0.0037775878 0.014474289 -0.05586558 0.03215347 -0.06749611 0.013503612 -0.040465776
-0.096339464 0.052882534 -0.046305977 0.08027123 -0.066087045 0.058300853 0.06638603 -0.059739657
-0.03075585 0.07686244 0.06841049 -4.9769795e-05 0.029679041 0.04739579 0.062339835 0.011879117
-0.058236085 0.08784024 -0.07108869 -0.045821615 -0.028978555 0.07760556 0.04819028 0.09568077
0.042763703 0.08886547 -0.0192081 0.09532245 -0.025869671 0.067879945 0.00014527777 -0.06140167
-0.09516838 0.0014595906 -0.06700909 -0.06413677 0.058275152 0.0026984725 0.060768344 0.08479648
-0.03195302 -0.1014242 0.06747967 0.07086071 0.026568614 0.08030227 0.009283045 0.11006463
-0.068925686 0.026317984 -0.029286219 -0.065934256 0.042960595 -0.0846054 -0.031939916 -0.041825738
0.044975035 -0.015883142 -0.08102034 0.056745782 -0.017319543 -0.0033086182 -0.12035338 -0.011832799
0.067443624 -0.103076406 -0.069225535 0.0688374 0.11747103 0.023515912 -0.055870533 0.022349585
0.042564582 -0.024198042 -0.0027470402 0.019772705 0.12652828 -0.04632261 -0.0313181 0.09305391
-0.04401086 0.0824832 0.062249586 0.0042369165 0.0540257 0.056565892 0.026057877 0.021471957
0.070110016 0.0671058 -0.03275491 -0.07128115 0.06986273 -0.069295175 -0.010382748 -0.024514636
0.12344557 -0.0504995 -0.026664652 -0.027149482 0.090739995 -0.0018548779 0.08738912 0.13250545
0.121837996 0.0037534388 -0.0027048795 -0.07592005 -0.044777136 0.021767784 -0.04428624 0.061074015
0.055004653 -0.060292266 0.03445662 0.026318388 0.021542756 0.05672918 0.07131706 0.034496464
00000000: 3829 c8bc 044c 1f3d 7159 72bb a572 24bd
00000010: 3c1b 83b8 702f 203d b9fc 8a3c 8903 ca3c
00000020: 1ab0 98bd 4f59 92bd f14d 5b3c 2a91 6e3d
00000030: a97f 97bd 9615 85bd b19e 9b3d 67c1 433d
00000040: df5a 21bc ae52 d73c 0fab cd3b 7883 eabc
00000050: 8b68 a5bd 6025 debd 43de 533d e2dd eb3c
00000060: 1ca4 28bc 58df 86bd a6f8 20b9 32c6 bd3d
00000070: 6389 f53c a0d6 47bd ad15 113d 52c7 a5bd
00000080: f6d3 8bbd 0cca 8dbd f15c 3b3d 80f6 8cbc
00000090: fc2f 89bd 12b4 21bd 00f2 1f3d 6f1e 06bd
000000a0: 5579 5e3d b404 66bd b4a2 1e3d e9a5 ed3c
000000b0: b273 8b3d 03dd 7b3d 58d3 66bd 9d32 24bd
000000c0: d86c 7c3d a1be 70bd 9930 86bc dc6f 373d
000000d0: 51d8 513d 9878 f038 2429 4a3c c405 5a3c
000000e0: 16ab a93c f4d2 bebd 9ba6 a63d fa73 97bc
000000f0: 6c8d 48bd 5407 993d 646f 5cbd 3bc8 90bd
00000100: 8ba8 3d3d f5f6 53bd c2cd 3b3d 06cf 043d
00000110: cb2e 083d dea1 1e3d 8e9f 873d 0173 7f3d
00000120: c2f7 3cbd 88aa 18bd 026b 39bb 7862 4bbd
00000130: 8c48 a63d 89c7 8abd da2b 0dbc d862 dfbc
00000140: e75e 9bbd 2fc6 97bd 49f6 a53c cf32 3ebd
00000150: e144 5b3d dd26 b83d ea3a 5fbd 797f adbd
00000160: b985 a3bd c9a6 5a3d 49da 243c d208 323d
00000170: 4cb8 88bd 356c 99bd f9cb 2a3d 4109 77bd
00000180: 82ad 6c3c 2c9c 213b 325d 99bd 8e9b d73c
00000190: 0b5d bebd a52e aebd 4d91 863d 9e70 ad3d
000001a0: 6bc9 0d3c 87de 173d 7ca2 f7bc 763f e8b9
000001b0: 7fbd e9bc 1ffc 2fbd 84d8 673c e05c b53d
000001c0: 55a6 5e3d be1a 0a3d 5420 a0ba 7e98 0cbd
000001d0: 9f2f e73b 5888 36bd b6d6 82bd d860 9a3d
000001e0: 79e1 853d bc2d e93c c451 bb3a b963 b1bd
000001f0: 5ad5 69bb 6636 0e3c d99c 403c d3a3 abbd
00000200: 5d34 a8bd 6891 773b 9125 6d3c 4ed3 64bd
00000210: 5bb3 033d 673b 8abd 413e 5d3c 71bf 25bd
00000220: a04d c5bd 5b9b 583d 56ab 3dbd 3e65 a43d
00000230: a558 87bd e0cc 6e3d 66f5 873d 92b1 74bd
00000240: b1f3 fbbc 0e6a 9d3d cd1a 8c3d e9bf 50b8
00000250: 7621 f33c 1722 423d 0e58 7f3d a1a0 423c
00000260: f688 6ebd 95e5 b33d f296 91bd 72af 3bbd
00000270: 6f64 edbc aaef 9e3d 2c63 453d 48f4 c33d
00000280: fe28 2f3d 19ff b53d 4e5a 9dbc 6b38 c33d
00000290: a2ec d3bc a404 8b3d b455 1839 5180 7bbd
000002a0: a4e7 c2bd bc4f bf3a 103c 89bd 245a 83bd
000002b0: edb1 6e3d dbd8 303b 3ae8 783d c7a9 ad3d
000002c0: 2be1 02bd 7eb7 cfbd c832 8a3d 6c1f 913d
000002d0: 6ca6 d93c 8475 a43d ea17 183c 9169 e13d
000002e0: e928 8dbd d098 d73c a7e9 efbc 8a08 87bd
000002f0: 73f7 2f3d 9945 adbd 6ed3 02bd 7751 2bbd
00000300: be37 383d 5d1d 82bc feed a5bd 446e 683d
00000310: b7e1 8dbc 67d5 58bb d57b f6bd 5bde 41bc
00000320: e21f 8a3d b919 d3bd 1ec6 8dbd 9ffa 8c3d
00000330: a794 f03d 71a4 c03c 80d8 64bd 7a16 b73c
00000340: 3358 2e3d f93a c6bc b007 34bb 5efa a13c
00000350: a190 013e c7bc 3dbd 6847 00bd 0c93 be3d
00000360: bb44 34bd f4ec a83d 6cf9 7e3d d5d5 8a3b
00000370: 0d4a 5d3d a3b1 673d 5477 d53c f5e5 af3c
00000380: d795 8f3d c46e 893d 032a 06bd dafb 91bd
00000390: 3114 8f3d a1ea 8dbd 671c 2abc ebd2 c8bc
000003a0: 08d1 fc3d 90d8 4ebd d46f dabc 9768 debc
000003b0: e4d5 b93d 601f f3ba 11f9 b23d 82af 073e
000003c0: 3386 f93d 41fc 753b 5944 31bb f97b 9bbd
000003d0: 3b68 37bd 5a52 b23c 7d65 35bd bf28 7a3d
000003e0: 8f4c 613d 06f5 76bd 6322 0d3d a999 d73c
000003f0: 6f7a b03c db5c 683d ae0e 923d 2a4c 0d3d

fc1.bias f4 [256]
-0.027376043 -0.06977918 -0.0058774487 -0.0487548 -0.0010052588 2.4732e-41 -2.2598765e-18 -0.000933648
-0.031297274 -0.001438262 -1.217235e-18 0.034461245 0.038976394 0.10478224 0.0077795493 0.061842486
-0.0024298232 -1.9687529e-21 0.061711617 -0.013940966 -3.2837932e-05 0.04316717 0.033401985 -0.04231617
0.109202795 -2.4211137e-19 -0.018906675 -0.002714774 -0.0034329556 -0.00561318 0.08769892 -0.11090814
-0.0056768395 -0.11488021 -0.015337882 -1.47461e-40 0.06438986 -2.6426502e-05 -1.5130985e-23 -3.211705e-05
-0.020996857 0.029604895 -0.020808117 0.006059181 -0.008296892 0.0036381406 0.023128314 -0.0052353884
-3.6360838e-08 -0.0035672556 -0.071811214 0.108487345 0.08591703 -0.044881202 0.012184285 -0.10157454
-1.07763e-40 0.005290366 0.07822967 0.020514121 -0.041607432 0.01519406 -0.0016891806 0.044394236
-7.791807e-20 -0.017579984 0.086773165 0.061388277 -0.0019551795 -0.09276578 0.052917417 0.0036532006
0.032027096 -0.03344718 0.022360688 -0.009908219 -5.617211e-11 -0.018473962 0.037602164 0.042306155
-0.03451489 0.115489684 -0.002013068 -0.08909759 0.0312329 -0.06905567 -0.0036471982 4.2606e-41
0.021571845 -0.0571832 -0.03814529 1.05635e-40 -0.048412774 0.045048878 0.010250429 0.059946515
0.023999674 0.12794116 0.004525341 -0.021259068 -0.030616097 -6.518462e-05 -0.021088906 -0.07363367
0.0035669403 -0.011512342 0.019727372 0.032932628 4.65817e-40 -3.0864868e-25 -3.69708e-16 0.025357205
0.11440605 0.111133814 -0.09906486 0.00055261614 -0.0072166068 0.046793103 -4.971152e-13 -0.05881292
-0.015328 -0.077838086 -0.03879535 -0.016482411 0.023659417 -0.073828615 -0.01411209 0.055330537
-0.06994731 0.038012583 -0.06518458 3.3736527e-26 0.05249195 -0.04560411 -4.7269595e-16 -0.03366563
0.01124224 0.04041443 -0.028471595 -0.018192377 -0.00010416256 0.04359734 0.008299234 7.334e-42
-0.0026103412 -1.2236983e-16 6.89499e-05 0.11162929 0.0636207 -0.00080564705 0.000802579 -0.025735814
-6.8222e-41 -0.003279058 0.03702075 -0.0006902128 -0.08789697 -1.3104e-41 2.073676e-36 0.033978596
0.067053705 0.029430285 -0.07075631 -6.926602e-37 0.09250724 0.052773524 0.05013502 0.096822135
0.013603978 -0.054037914 0.08714216 0.058921833 -0.021082379 -0.0010328428 -0.012627695 0.06958239
8.943866e-28 -0.03989741 -0.01617545 -0.029646546 -0.03059019 2.3630926e-17 0.001070471 -0.0036040957
0.06864723 -0.028459756 -0.049884163 -0.041033383 0.012813413 -0.107971266 1.5618519e-19 -6.7388e-41
3.426918e-35 -0.02406851 0.042590477 0.039263688 -0.033486053 0.13835898 -8.26634e-22 -0.00063542725
0.07394853 0.009962114 -0.059935346 -0.103839904 0.06468626 -0.009273741 0.08622761 -0.038851194
-0.037859675 0.031990983 -0.0001108666 0.014693986 0.03525277 0.016477374 4.5423e-41 -1.3315476e-07
0.047042675 -0.10702471 -2.7715e-41 0.07116499 9.8631427e-20 -3.3826034e-13 0.051388428 0.0026627765
0.0359149 -4.141271e-17 -0.0013732658 0.05540519 -0.009755637 0.00021775535 -2.1383385e-05 0.03277352
0.055027183 0.025639242 0.066419065 0.08209725 -1.70392e-40 0.058929246 -0.061600033 -0.042456415
-0.049941696 0.056675553 0.110650934 -0.04367187 -0.018253524 0.015095734 0.07184177 0.066554606
1.1827619e-19 0.0009711872 -0.0030752236 -3.691905e-20 -0.028624473 -0.008765196 0.08350101 0.04660927
00000000: b943 e0bc 63e8 8ebd 9d97 c0bb 1db3 47bd
00000010: e3c2 83ba f144 0000 dcbf 26a2 0fc0 74ba
00000020: 9231 00bd 1184 bcba d7a1 b3a1 3c27 0d3d
00000030: b6a5 1f3d 1298 d63d 97eb fe3b 8c4e 7d3d
00000040: ab3d 1fbb 38c1 149d 52c5 7c3d a668 64bc
00000050: 76bb 09b8 0fd0 303d 85d0 083d b853 2dbd
00000060: b7a5 df3d d6ea 8ea0 2ce2 9abc 5aea 31bb
00000070: 70fb 60bb c4ee b7bb 7e9b b33d cf23 e3bd
00000080: c804 babb 5146 ebbd bd4b 7bbc 109b 0180
00000090: d5de 833d 7bae ddb7 8156 9299 6bb5 06b8
000000a0: 9a01 acbc f785 f23c c975 aabc 188c c63b
000000b0: b0ef 07bc df6d 6e3b 9777 bd3c 9f8d abbb
000000c0: 2a2b 1cb3 9ec8 69bb c211 93bd 9d2e de3d
000000d0: 45f5 af3d 5ad5 37bd 98a0 473c 5006 d0bd
000000e0: 662c 0180 ce5a ad3b e136 a03d 3b0d a83c
000000f0: 8e6c 2abd 82f0 783c 7f67 ddba bbd6 353d
00000100: 95fa b79f e603 90bc 21b6 b13d 4672 7b3d
00000110: 7822 00bb fcfb bdbd efbf 583d 896a 6f3b
00000120: d82e 033d e9ff 08bd c32d b73c 1556 22bc
00000130: 2c0c 77ae b556 97bc ba04 1a3d 3849 2d3d
00000140: 7c5f 0dbd db85 ec3d aded 03bb cc78 b6bd
00000150: 24dc ff3c 0f6d 8dbd d505 6fbb c576 0000
00000160: 70b7 b03c ee38 6abd 3c3e 1cbd 7826 0100
00000170: 794c 46bd 2c85 383d 6af1 273c 7a8a 753d
00000180: f79a c43c 0203 033e 5049 943b 7f27 aebc
00000190: 9cce fabc bab3 88b8 a4c2 acbc 40cd 96bd
000001a0: 54c3 693b 439e 3cbc 4c9b a13c 5de4 063d
000001b0: 8212 0500 560b bf96 451f d5a5 eab9 cf3c
000001c0: b84d ea3d 209a e33d 84e2 cabd 71dd 103a
000001d0: 4979 ecbb 20aa 3f3d edec 0bab d1e5 70bd
000001e0: 4b22 7bbc 9369 9fbd dfe7 1ebd 1f06 87bc
000001f0: 65d1 c13c 7533 97bd 6536 67bc 46a2 623d
00000200: 8940 8fbd 15b3 1b3d 7e7f 85bd 210e 2715
00000210: cd01 573d 60cb 3abd ce3e 08a6 f9e4 09bd
00000220: 5f31 383c 9a89 253d 433d e9bc 2e08 95bc
00000230: d971 dab8 2093 323d 83f9 073c 7214 0000
00000240: 4212 2bbb 3315 0da5 3299 9038 e69d e43d
00000250: 924b 823d 0f32 53ba 2a64 523a ead3 d2bc
00000260: 2dbe 0080 77e5 56bb 12a3 173d 66ef 34ba
00000270: 5403 b4bd 8724 0080 aa68 3004 242d 0b3d
00000280: 7453 893d c817 f13c afe8 90bd 37b3 6b83
00000290: 7074 bd3d 0d29 583d 615a 4d3d af4a c63d
000002a0: 38e3 5e3c dc56 5dbd 9777 b23d 0558 713d
000002b0: f4b4 acbc 7460 87ba 64e4 4ebc 3681 8e3d
000002c0: a1b8 8d12 776b 23bd 6182 84bc 50dd f2bc
000002d0: 4798 fabc f2f4 d923 0c4f 8c3a b132 6cbb
000002e0: eb96 8c3d 6f24 e9bc 5653 4cbd 9f12 28bd
000002f0: 59ef 513c 0a20 ddbd 1464 3820 dabb 0080
00000300: ca34 3606 532b c5bc 5a73 2e3d f6d2 203d
00000310: ac28 09bd faad 0d3e b5d5 799c cd92 26ba
00000320: 5472 973d 2238 233c c47e 75bd 04aa d4bd
00000330: 3b7a 843d e4f0 17bc 1a98 b03d 6e22 1fbd
00000340: bf12 1bbd fa08 033d 0d81 e8b8 0bbf 703c
00000350: 3565 103d 8ffb 863c 9f7e 0000 4df9 0eb4
00000360: d2af 403d c52f dbbd 424d 0080 f3be 913d
00000370: 0ae3 e81f 746c beaa ac7c 523d fa81 2e3b
00000380: 811b 133d 80fb 3ea4 27ff b3ba 8df0 623d
00000390: 1bd6 1fbc 4255 6439 7860 b3b7 873d 063d
000003a0: 2f64 613d 6309 d23c b806 883d 9a22 a83d
000003b0: fcda 0180 cb5f 713d 5150 7cbd c7e6 2dbd
000003c0: aa8f 4cbd a024 683d f59c e23d 46e1 32bd
000003d0: 6a88 95bc 1954 773c c721 933d c84d 883d
000003e0: c9a2 0b20 4597 7e3a b189 49bb 6558 2e9f
000003f0: df7d eabc e69b 0fbc 9402 ab3d 5de9 3e3d
